Successfully load data! X_train.shape(6455, 3, 150, 150), y_train.shape(6455,), X_test.shape(2690, 3, 150, 150), y_test.shape(2690,)
_________________________________________________________________
Layer (type)                 Output Shape              Param #   
=================================================================
conv2d_1 (Conv2D)            (None, 32, 150, 150)      896       
_________________________________________________________________
dropout_1 (Dropout)          (None, 32, 150, 150)      0         
_________________________________________________________________
conv2d_2 (Conv2D)            (None, 32, 150, 150)      9248      
_________________________________________________________________
max_pooling2d_1 (MaxPooling2 (None, 32, 75, 75)        0         
_________________________________________________________________
flatten_1 (Flatten)          (None, 180000)            0         
_________________________________________________________________
dense_1 (Dense)              (None, 512)               92160512  
_________________________________________________________________
dropout_2 (Dropout)          (None, 512)               0         
_________________________________________________________________
dense_2 (Dense)              (None, 102)               52326     
=================================================================
Total params: 92,222,982
Trainable params: 92,222,982
Non-trainable params: 0
_________________________________________________________________
None
Train on 6455 samples, validate on 2690 samples
Epoch 1/25

  64/6455 [..............................] - ETA: 21:36 - loss: 4.6116 - acc: 0.0156
 128/6455 [..............................] - ETA: 17:23 - loss: 4.6116 - acc: 0.0234
…
